…
model.add(Dense(units = 4096, activation = 'relu'))
model.add(Dropout(0.4))
model.add(BatchNormalization())
model.add(Dense(units = 4096, activation = 'relu'))
model.add(Dropout(0.4))
model.add(BatchNormalization())
model.add(Dense(units = 1000, activation = 'relu'))
model.add(Dropout(0.2))
model.add(BatchNormalization())
model.add(Dense(units = 38, activation = 'softmax'))    
model.summary()
Model: "sequential_1"
_________________________________________________________________
Layer (type)                 Output Shape              Param #   
=================================================================
conv2d_1 (Conv2D)            (None, 54, 54, 96)        34944     
_________________________________________________________________
max_pooling2d_1 (MaxPooling2 (None, 27, 27, 96)        0         
_________________________________________________________________
batch_normalization_1 (Batch (None, 27, 27, 96)        384       
_________________________________________________________________
conv2d_2 (Conv2D)            (None, 17, 17, 256)       2973952   
_________________________________________________________________
max_pooling2d_2 (MaxPooling2 (None, 8, 8, 256)         0         
_________________________________________________________________
batch_normalization_2 (Batch (None, 8, 8, 256)         1024      
_________________________________________________________________
conv2d_3 (Conv2D)            (None, 6, 6, 384)         885120    
_________________________________________________________________
batch_normalization_3 (Batch (None, 6, 6, 384)         1536      
_________________________________________________________________
conv2d_4 (Conv2D)            (None, 4, 4, 384)         1327488   
_________________________________________________________________
batch_normalization_4 (Batch (None, 4, 4, 384)         1536      
_________________________________________________________________
conv2d_5 (Conv2D)            (None, 2, 2, 256)         884992    
_________________________________________________________________
max_pooling2d_3 (MaxPooling2 (None, 1, 1, 256)         0         
_________________________________________________________________
batch_normalization_5 (Batch (None, 1, 1, 256)         1024      
_________________________________________________________________
flatten_1 (Flatten)          (None, 256)               0         
_________________________________________________________________
dense_1 (Dense)              (None, 4096)              1052672   
_________________________________________________________________
dropout_1 (Dropout)          (None, 4096)              0         
_________________________________________________________________
batch_normalization_6 (Batch (None, 4096)              16384     
_________________________________________________________________
dense_2 (Dense)              (None, 4096)              16781312  
_________________________________________________________________
dropout_2 (Dropout)          (None, 4096)              0         
_________________________________________________________________
batch_normalization_7 (Batch (None, 4096)              16384     
_________________________________________________________________
dense_3 (Dense)              (None, 1000)              4097000   
_________________________________________________________________
dropout_3 (Dropout)          (None, 1000)              0         
_________________________________________________________________
batch_normalization_8 (Batch (None, 1000)              4000      
_________________________________________________________________
dense_4 (Dense)              (None, 38)                38038     
=================================================================
Total params: 28,117,790
Trainable params: 28,096,654
Non-trainable params: 21,136
_________________________________________________________________
model.load_weights('best_weights_6.hdf5')
print("Freezed layers:")
for i, layer in enumerate(model.layers[:20]):
    print(i, layer.name)
    layer.trainable = False
Freezed layers:
…
